…
conv3d_6 (Conv3D)                (None, 1, 13, 100, 12 138508      conv3d_5[0][0]                   
____________________________________________________________________________________________________
conv3d_18 (Conv3D)               (None, 1, 13, 50, 124 138508      conv3d_17[0][0]                  
____________________________________________________________________________________________________
max_pooling3d_4 (MaxPooling3D)   (None, 1, 6, 100, 124 0           conv3d_6[0][0]                   
____________________________________________________________________________________________________
max_pooling3d_10 (MaxPooling3D)  (None, 1, 6, 50, 124) 0           conv3d_18[0][0]                  
____________________________________________________________________________________________________
conv3d_7 (Conv3D)                (None, 1, 6, 100, 124 138508      max_pooling3d_4[0][0]            
____________________________________________________________________________________________________
conv3d_19 (Conv3D)               (None, 1, 6, 50, 124) 138508      max_pooling3d_10[0][0]           
____________________________________________________________________________________________________
conv3d_8 (Conv3D)                (None, 1, 6, 100, 124 138508      conv3d_7[0][0]                   
____________________________________________________________________________________________________
conv3d_20 (Conv3D)               (None, 1, 6, 50, 124) 138508      conv3d_19[0][0]                  
____________________________________________________________________________________________________
max_pooling3d_5 (MaxPooling3D)   (None, 1, 6, 50, 124) 0           conv3d_8[0][0]                   
____________________________________________________________________________________________________
max_pooling3d_11 (MaxPooling3D)  (None, 1, 6, 25, 124) 0           conv3d_20[0][0]                  
____________________________________________________________________________________________________
conv3d_9 (Conv3D)                (None, 1, 6, 50, 124) 138508      max_pooling3d_5[0][0]            
____________________________________________________________________________________________________
conv3d_21 (Conv3D)               (None, 1, 6, 25, 124) 138508      max_pooling3d_11[0][0]           
____________________________________________________________________________________________________
conv3d_10 (Conv3D)               (None, 1, 6, 50, 124) 138508      conv3d_9[0][0]                   
____________________________________________________________________________________________________
conv3d_22 (Conv3D)               (None, 1, 6, 25, 124) 138508      conv3d_21[0][0]                  
____________________________________________________________________________________________________
max_pooling3d_6 (MaxPooling3D)   (None, 1, 6, 25, 124) 0           conv3d_10[0][0]                  
____________________________________________________________________________________________________
max_pooling3d_12 (MaxPooling3D)  (None, 1, 6, 12, 124) 0           conv3d_22[0][0]                  
____________________________________________________________________________________________________
conv3d_11 (Conv3D)               (None, 1, 6, 25, 124) 138508      max_pooling3d_6[0][0]            
____________________________________________________________________________________________________
conv3d_23 (Conv3D)               (None, 1, 6, 12, 124) 138508      max_pooling3d_12[0][0]           
____________________________________________________________________________________________________
conv3d_12 (Conv3D)               (None, 1, 6, 25, 124) 138508      conv3d_11[0][0]                  
____________________________________________________________________________________________________
conv3d_24 (Conv3D)               (None, 1, 6, 12, 124) 138508      conv3d_23[0][0]                  
____________________________________________________________________________________________________
max_pooling3d_7 (MaxPooling3D)   (None, 1, 6, 12, 124) 0           conv3d_12[0][0]                  
____________________________________________________________________________________________________
max_pooling3d_13 (MaxPooling3D)  (None, 1, 6, 6, 124)  0           conv3d_24[0][0]                  
____________________________________________________________________________________________________
flatten_1 (Flatten)              (None, 8928)          0           max_pooling3d_7[0][0]            
____________________________________________________________________________________________________
flatten_2 (Flatten)              (None, 4464)          0           max_pooling3d_13[0][0]           
____________________________________________________________________________________________________
concatenate_1 (Concatenate)      (None, 13392)         0           flatten_1[0][0]                  
                                                                   flatten_2[0][0]                  
____________________________________________________________________________________________________
dense_1 (Dense)                  (None, 256)           3428608     concatenate_1[0][0]              
____________________________________________________________________________________________________
dropout_1 (Dropout)              (None, 256)           0           dense_1[0][0]                    
____________________________________________________________________________________________________
dense_2 (Dense)                  (None, 128)           32896       dropout_1[0][0]                  
____________________________________________________________________________________________________
dropout_2 (Dropout)              (None, 128)           0           dense_2[0][0]                    
____________________________________________________________________________________________________
dense_3 (Dense)                  (None, 128)           16512       dropout_2[0][0]                  
____________________________________________________________________________________________________
dropout_3 (Dropout)              (None, 128)           0           dense_3[0][0]                    
____________________________________________________________________________________________________
dense_4 (Dense)                  (None, 64)            8256        dropout_3[0][0]                  
____________________________________________________________________________________________________
dropout_4 (Dropout)              (None, 64)            0           dense_4[0][0]                    
____________________________________________________________________________________________________
dense_5 (Dense)                  (None, 3)             195         dropout_4[0][0]                  
====================================================================================================
Total params: 6,927,591
Trainable params: 6,927,591
Non-trainable params: 0
____________________________________________________________________________________________________


------ Epoch 0 -------
Epoch 1/1
1552/1552 [==============================] - 911s - loss: 0.1739 - acc: 0.3524 - val_loss: 0.0658 - val_acc: 0.4798
…
